…
2020-05-03 20:53:21.789985: I tensorflow/stream_executor/cuda/cuda_diagnostics.cc:176] hostname: Salomon
2020-05-03 20:53:21.829320: I tensorflow/core/platform/cpu_feature_guard.cc:142] Your CPU supports instructions that this TensorFlow binary was not compiled to use: AVX2
Model: "model"
__________________________________________________________________________________________________
Layer (type)                    Output Shape         Param #     Connected to                     
==================================================================================================
input_1 (InputLayer)            [(None, 128, 128, 3) 0                                            
__________________________________________________________________________________________________
lambda (Lambda)                 (None, 128, 128, 3)  0           input_1[0][0]                    
__________________________________________________________________________________________________
conv2d (Conv2D)                 (None, 128, 128, 16) 448         lambda[0][0]                     
__________________________________________________________________________________________________
dropout (Dropout)               (None, 128, 128, 16) 0           conv2d[0][0]                     
__________________________________________________________________________________________________
conv2d_1 (Conv2D)               (None, 128, 128, 16) 2320        dropout[0][0]                    
__________________________________________________________________________________________________
max_pooling2d (MaxPooling2D)    (None, 64, 64, 16)   0           conv2d_1[0][0]                   
__________________________________________________________________________________________________
conv2d_2 (Conv2D)               (None, 64, 64, 32)   4640        max_pooling2d[0][0]              
__________________________________________________________________________________________________
dropout_1 (Dropout)             (None, 64, 64, 32)   0           conv2d_2[0][0]                   
__________________________________________________________________________________________________
conv2d_3 (Conv2D)               (None, 64, 64, 32)   9248        dropout_1[0][0]                  
__________________________________________________________________________________________________
max_pooling2d_1 (MaxPooling2D)  (None, 32, 32, 32)   0           conv2d_3[0][0]                   
__________________________________________________________________________________________________
conv2d_4 (Conv2D)               (None, 32, 32, 64)   18496       max_pooling2d_1[0][0]            
__________________________________________________________________________________________________
dropout_2 (Dropout)             (None, 32, 32, 64)   0           conv2d_4[0][0]                   
__________________________________________________________________________________________________
conv2d_5 (Conv2D)               (None, 32, 32, 64)   36928       dropout_2[0][0]                  
__________________________________________________________________________________________________
max_pooling2d_2 (MaxPooling2D)  (None, 16, 16, 64)   0           conv2d_5[0][0]                   
__________________________________________________________________________________________________
conv2d_6 (Conv2D)               (None, 16, 16, 128)  73856       max_pooling2d_2[0][0]            
__________________________________________________________________________________________________
dropout_3 (Dropout)             (None, 16, 16, 128)  0           conv2d_6[0][0]                   
__________________________________________________________________________________________________
conv2d_7 (Conv2D)               (None, 16, 16, 128)  147584      dropout_3[0][0]                  
__________________________________________________________________________________________________
max_pooling2d_3 (MaxPooling2D)  (None, 8, 8, 128)    0           conv2d_7[0][0]                   
__________________________________________________________________________________________________
conv2d_8 (Conv2D)               (None, 8, 8, 256)    295168      max_pooling2d_3[0][0]            
__________________________________________________________________________________________________
dropout_4 (Dropout)             (None, 8, 8, 256)    0           conv2d_8[0][0]                   
__________________________________________________________________________________________________
conv2d_9 (Conv2D)               (None, 8, 8, 256)    590080      dropout_4[0][0]                  
__________________________________________________________________________________________________
conv2d_transpose (Conv2DTranspo (None, 16, 16, 128)  131200      conv2d_9[0][0]                   
__________________________________________________________________________________________________
concatenate (Concatenate)       (None, 16, 16, 256)  0           conv2d_transpose[0][0]           
                                                                 conv2d_7[0][0]                   
__________________________________________________________________________________________________
conv2d_10 (Conv2D)              (None, 16, 16, 128)  295040      concatenate[0][0]                
__________________________________________________________________________________________________
dropout_5 (Dropout)             (None, 16, 16, 128)  0           conv2d_10[0][0]                  
__________________________________________________________________________________________________
conv2d_11 (Conv2D)              (None, 16, 16, 128)  147584      dropout_5[0][0]                  
__________________________________________________________________________________________________
conv2d_transpose_1 (Conv2DTrans (None, 32, 32, 64)   32832       conv2d_11[0][0]                  
__________________________________________________________________________________________________
concatenate_1 (Concatenate)     (None, 32, 32, 128)  0           conv2d_transpose_1[0][0]         
                                                                 conv2d_5[0][0]                   
__________________________________________________________________________________________________
conv2d_12 (Conv2D)              (None, 32, 32, 64)   73792       concatenate_1[0][0]              
__________________________________________________________________________________________________
dropout_6 (Dropout)             (None, 32, 32, 64)   0           conv2d_12[0][0]                  
__________________________________________________________________________________________________
conv2d_13 (Conv2D)              (None, 32, 32, 64)   36928       dropout_6[0][0]                  
__________________________________________________________________________________________________
conv2d_transpose_2 (Conv2DTrans (None, 64, 64, 32)   8224        conv2d_13[0][0]                  
__________________________________________________________________________________________________
concatenate_2 (Concatenate)     (None, 64, 64, 64)   0           conv2d_transpose_2[0][0]         
                                                                 conv2d_3[0][0]                   
__________________________________________________________________________________________________
conv2d_14 (Conv2D)              (None, 64, 64, 32)   18464       concatenate_2[0][0]              
__________________________________________________________________________________________________
dropout_7 (Dropout)             (None, 64, 64, 32)   0           conv2d_14[0][0]                  
__________________________________________________________________________________________________
conv2d_15 (Conv2D)              (None, 64, 64, 32)   9248        dropout_7[0][0]                  
__________________________________________________________________________________________________
conv2d_transpose_3 (Conv2DTrans (None, 128, 128, 16) 2064        conv2d_15[0][0]                  
__________________________________________________________________________________________________
concatenate_3 (Concatenate)     (None, 128, 128, 32) 0           conv2d_transpose_3[0][0]         
                                                                 conv2d_1[0][0]                   
__________________________________________________________________________________________________
conv2d_16 (Conv2D)              (None, 128, 128, 16) 4624        concatenate_3[0][0]              
__________________________________________________________________________________________________
dropout_8 (Dropout)             (None, 128, 128, 16) 0           conv2d_16[0][0]                  
__________________________________________________________________________________________________
conv2d_17 (Conv2D)              (None, 128, 128, 16) 2320        dropout_8[0][0]                  
__________________________________________________________________________________________________
conv2d_18 (Conv2D)              (None, 128, 128, 1)  17          conv2d_17[0][0]                  
==================================================================================================
Total params: 1,941,105
Trainable params: 1,941,105
Non-trainable params: 0
__________________________________________________________________________________________________
Train on 603 samples, validate on 67 samples
Epoch 1/25
2020-05-03 20:53:27.744070: I tensorflow/core/profiler/lib/profiler_session.cc:225] Profiler session started.
…
